models/smallcnn_fashionmnist.pth (torch, 831441 bytes, 8 tensors)

conv1.weight f4 [16, 1, 3, 3]
00000000: 59de 34be 215d 893e a1be 2d3d 3e64 a43e
00000010: de6b a2be e397 d43d 0cb9 6e3e 8faa 40be
00000020: 8a46 cfbd e194 82be 23de af3e 4f1e 403e
00000030: 962c 25be e6cb 38bf 9ca9 35bf 9b03 16bf
00000040: 4301 0bbf 0113 8ebe 00dc 43be 19ad a33e
00000050: 36b5 dd3e 6fd8 1ebf 867f 87be 3b55 873e
00000060: 93bd 93be 2abf dbbd 5a45 5b3e 1143 1a3e
00000070: aaf1 cfbe 2970 e5be 8098 0f3f bbdf 923e
00000080: 4c3c 683e a734 bd3e 3585 db3e d29d be3d
00000090: 41c2 9c3e b5f7 c33e 3645 943d 56a2 ad3e
000000a0: bfa9 2ebe ccc8 4f3e 68ae e33d c6ed f5bc
000000b0: c415 93bd 88e3 17be 7d42 39bd 1658 973e
000000c0: a84c 0ebe f4cb 55bd 3403 603e 9303 b1be
000000d0: d4d8 4e3e e1be ab3e d92b d1bd abbe b5be
000000e0: 071b 43be 84dc 423e 2167 ba3e 3b6e 0ebe
000000f0: e2d4 6b3e 667c 92bd a1aa ab3e 1427 94be
00000100: 50f5 5d3e ef88 d9bd 9eeb 2b3d 32b8 483e
00000110: ed30 cc3e ae26 9e3e 9bf8 a93e b57d 9b3e
00000120: 79eb adbe 4082 873e 8fbb bd3e c65b 41bd
00000130: 07f6 a23e 2000 05be d268 c2be 24a5 343d
00000140: fc12 843e 7962 123e 0b46 febd 4d8b 473e
00000150: bb22 8f3e 5e78 e63e 11a1 743e 31b0 9cbd
00000160: 0b48 383e e7c8 0dbe 2360 f23d 4a45 473e
00000170: fd39 a0be 5dd2 1bbe 3bdf 073f 9157 c1be
00000180: 4c0e 843b 68c7 cb3d 6df1 d4bd 3821 503e
00000190: 1438 133e 36ad 133d 3622 043f b513 d9bd
000001a0: d979 923d 87dd d03e c784 b4be 66d8 41be
000001b0: 3bd2 c7bd 533a 363e 9a5b 43be 20cf c13e
000001c0: 7fe6 dd3d f193 6ebe e440 b33e 346b 663e
000001d0: 132f 4dbe de4c af3e fb39 7cbe 4289 aabe
000001e0: 9a6e ac3d cb61 d73d e6a6 34be a904 573e
000001f0: d43f 91bd 59c4 e6bd 34b9 283e 4602 bc3e
00000200: 9d8c da3e 7c93 77be 1c0e 003e 10be e4bd
00000210: 7805 efbe 14a2 96be 8170 8ebe 7539 c33e
00000220: 4a40 ab3e 8885 373e cd9d 09be db45 c13d
00000230: 4ffb 11be a33d 753e f3f1 923e bfde 4e3d
-0.17662944 0.26828864 0.042418126 0.3210773 -0.3172292 0.103805326 0.23312777 -0.18815063
-0.10120876 -0.2550421 0.34349164 0.18761562 -0.1613029 -0.72186124 -0.7096193 -0.5859925
-0.542988 -0.27748874 -0.19126892 0.31968 0.43302315 -0.62049 -0.2646448 0.26432213
-0.2885557 -0.10729821 0.21413174 0.15064646 -0.40614063 -0.44812134 0.5609207 0.28686318
0.22679251 0.36954233 0.42875066 0.093074456 0.30616954 0.38274923 0.072397634 0.33912915
-0.1705694 0.20291442 0.1111725 -0.030020606 -0.07181886 -0.1483289 -0.045229424 0.29559392
-0.1389643 -0.052196458 0.21876222 -0.3457304 0.20199901 0.33544067 -0.102134414 -0.3549703
-0.19053279 0.19029433 0.36406806 -0.13909237 0.23030427 -0.07152633 0.33528617 -0.28936064
0.2167561 -0.10621821 0.04197275 0.19601515 0.39881077 0.30888885 0.33197483 0.30369344
-0.33968714 0.2646656 0.37057158 -0.047206663 0.3182833 -0.12988329 -0.37970597 0.044102803
0.25795734 0.14295377 -0.124157034 0.19486733 0.27956185 0.45013708 0.23889567 -0.07650793
0.17996232 -0.1384617 0.11834743 0.19460025 -0.31294242 -0.15216966 0.53075 -0.3776212
0.0040300246 0.09950143 -0.10397611 0.20325172 0.14376861 0.03605386 0.516147 -0.10599462
0.07152147 0.40794012 -0.3525755 -0.18930206 -0.09756895 0.17795686 -0.19077912 0.37853336
0.10834979 -0.23298623 0.35010445 0.22501832 -0.20037489 0.34238333 -0.24631493 -0.33307844
0.08419533 0.105166994 -0.17641792 0.20997871 -0.070922524 -0.11267919 0.164769 0.36720484
0.42685404 -0.24177355 0.12505382 -0.11169064 -0.4668386 -0.2942053 -0.2782021 0.38129774
0.33447486 0.17922032 -0.13439102 0.09437152 -0.14256023 0.23949294 0.28700218 0.050505396

conv1.bias f4 [16]
00000000: d160 2c3c b72c 653e dd7c 5d3e b7aa 103b
00000010: 5925 aa3e a781 a3bd c078 803e b052 c0b6
00000020: 7c92 e33d 32f4 d03a c0e8 153c e930 913a
00000030: a0d4 d9bd 18da 543e 9250 263e ad1a 08bd
0.01052113 0.22380339 0.21629663 0.002207441 0.3323162 -0.079837136 0.25092125 -5.731672e-06
0.11111924 0.0015941916 0.00914973 0.0011077198 -0.10636258 0.20786321 0.16241673 -0.033228565

conv2.weight f4 [32, 16, 3, 3]
00000000: e087 cdbd 13d3 513d be4b d23d ac7d 17be
00000010: 5ae3 3b3d 4276 c23d f217 2fbe c088 a33d
00000020: 9ed2 ab3d 5d75 4a3e 09d9 053d 88f2 5abe
00000030: e6cc 0f3e 9321 18be 2957 a7be 2e5c eabb
00000040: 2915 bebe b3d1 36be c798 4cbc be11 3e3e
00000050: 96f3 10be ba69 c0bd 2f67 0b3e 65ea 05be
00000060: ed18 943d 9354 c13d fbc0 26bc 1c69 15be
00000070: f0bd 07be 90b7 0f3d 5a98 31bd 4d95 20be
00000080: 2930 fd3d c0c5 2c3d 6194 593c 95d2 1c3e
00000090: 3c90 08bc ad80 ccbc 99c2 a33c 51d7 9abd
000000a0: 9a1c a83b 25be 243e 090d af3b 5e41 8c3d
000000b0: dae1 8f3d 1c9e 003d 1017 853e 4d41 81bd
000000c0: 6dc0 f2bd a82e 6f3e 76c5 dabd 6b26 4abd
000000d0: cf37 a93e c9b0 f0bb 789f 84bd ea91 ca3c
000000e0: a750 ab3c a70e 0abc 267a 7a3d e1b0 5a3c
000000f0: e733 623c 6223 34bd aa99 873d fd47 24be
00000100: 9fcd 123d a198 d2bc 5146 a2bd 7952 213c
00000110: b114 e53c 00ec a33a 7869 bc3c ef6c a73d
00000120: 0003 6fbd 858e ca3d 311e ab3d ed8a 25be
00000130: 4c78 893d c65a 753d 0e82 59bd 32ab 3fbc
00000140: 87ab da3b ad35 d8bd 0868 39bb c9de 003d
00000150: 3aa0 a9bd 2e06 80bb 1b4d cdbc fa1d 29bd
00000160: 1126 0cbd 17f5 a6bc 0dee 2e3e 36ae 993d
00000170: 94fa e33c b643 4b3d ed84 663e fea2 f8bc
00000180: 0a90 883e f550 b23e 9767 76bd e8db 27be
00000190: 5876 733b 6729 e03c 7fed b8bd b027 e6ba
000001a0: b344 2c3e e1b4 f3bc 8bde 3e3d d511 d53d
000001b0: 66d1 533e 7ad7 66bd e77b c23c 619c 873d
000001c0: 98a6 d8bd 073c 243d 4861 783e 76fb 923d
000001d0: 4260 083e b803 023e b9e0 afbc 4527 e0bc
000001e0: 603c 033e f09d 99bd 6d90 803d b8d6 553d
000001f0: c748 0ebd bb74 4e3d d25d e7bd 7eb9 a7bd
00000200: 6f1d 45be deb0 1fbc 31d1 53be 5c68 0bbe
00000210: 015d a13d 5ed3 663c 76ce 1d3d b7f3 09be
00000220: fd1e 63bd 9948 8a3d aefb 0cbe 1d7b 95bd
00000230: ff59 f33d 1bac c9bd fe65 bdb8 14bd 85bb
00000240: 4bec 5dbd c25d 883d d842 db3d 165b 733d
00000250: b6b0 c23d 7691 5fbd 0388 b2bd 9f7f d1bc
00000260: 082a 00bd 14d2 9dbc aceb 85bd 792e bdbe
00000270: 8226 16be 17b6 9cbe 6ed3 91be 0baf c6bd
00000280: 5846 a2be 58b0 60be 2a28 f53d 7e30 c03c
00000290: b61b b4bb 7a5c b4bc a191 d1bd 1a57 cc3d
000002a0: d89e 1a3c 1e5e 3fbc ec88 1a3d eecb 683d
000002b0: 5d1a cd3d 7bef 093e 7e9d 2c3b d3ac 02be
000002c0: 4aa7 4fbc 5fed dfba 0bfb 813c bd5e 5e3d
000002d0: f802 83bd 416b 3bbd 31e5 043e 3063 973d
000002e0: 0880 743d 4b7d ac3d 53f3 483d a696 e03d
000002f0: e751 803d b4fa 94bd 0688 e2bd 2bea bcbd
00000300: 7872 5ebe d837 6bbe 686c 3abe 7103 89be
00000310: ed1b 7fbe 8e96 48be 08ab f43c 91e1 8f3d
00000320: 50e0 373e 6c2f 073e f8be 12bd 8ebf 093d
00000330: c19c 273d 505f a43c df4e d83c 6629 5ebd
00000340: a82f af3d 70c1 1b3d eb42 8cbd c69e 28bc
00000350: c654 a13c e405 643c dbe8 7abc 534c 663c
00000360: 1659 cdbc 6ef0 543d 3b53 093d d31d 093e
00000370: 62ef 863d 1307 083d e4a7 d03b a2bc a3bd
00000380: 7b35 4fbd fa90 c0bd 1961 abbd 5cb7 b53d
00000390: 5ad3 8c3c c687 473d b65b 6cbc a8cc 2bbd
000003a0: 4844 aa3d 8152 2ebd 9e5c b2be 23f4 3fbe
000003b0: 1f6e 5d3e 0999 1dbe 6bd1 5cbe a540 42bd
000003c0: aaa4 3abe 9843 5dbe 70d9 3bbe b996 edbd
000003d0: 075b 00bd ecf1 28bd d7b5 223c a8b8 4e3d
000003e0: 44b7 83bd a9e9 acbd f687 b13c 4ec1 583c
000003f0: 2692 b3be 58f0 9dbe 63d0 bc3c fe68 92be
-0.10035682 0.051226687 0.10268353 -0.14794034 0.045871116 0.09495212 -0.17098978 0.07985067
0.083897814 0.19771333 0.032677684 -0.21381581 0.14043006 -0.14856558 -0.32683685 -0.007152102
-0.3712552 -0.17853431 -0.012487597 0.18561456 -0.1415542 -0.09395166 0.1361358 -0.13077696
0.07231317 0.094399594 -0.010177846 -0.14590877 -0.13256049 0.03508717 -0.043358184 -0.15681954
0.123627014 0.042180777 0.013280005 0.15314706 -0.008335169 -0.024963701 0.019990252 -0.075605996
0.0051303627 0.1608816 0.00534213 0.06848405 0.070255 0.031400785 0.25994158 -0.06311283
-0.118531086 0.23357642 -0.10682194 -0.049353044 0.3305039 -0.007345293 -0.06475729 0.02472778
0.020912481 -0.008426345 0.061151646 0.013347835 0.01380632 -0.043979056 0.06621106 -0.16043086
0.035840627 -0.025707545 -0.07923568 0.009846323 0.027963968 0.0012506247 0.02299951 0.08175074
-0.05835247 0.09890465 0.08355368 -0.16166277 0.06712398 0.05990102 -0.053102545 -0.011698531
0.0066732797 -0.10557113 -0.0028290767 0.031462464 -0.08282514 -0.0039069867 -0.02506118 -0.041288354
-0.03421599 -0.02038054 0.17082997 0.07503931 0.027829446 0.04962512 0.22511645 -0.030351158
0.26672393 0.3482739 -0.060157385 -0.16392481 0.0037149396 0.027363492 -0.09029674 -0.0017559435
0.16823082 -0.029749336 0.046598952 0.10403792 0.20685348 -0.05635784 0.023740722 0.06621624
-0.1057865 0.04009631 0.2425586 0.071768686 0.1331797 0.12696731 -0.02146946 -0.027362475
0.12816 -0.07500827 0.06277547 0.052206725 -0.034737375 0.05040429 -0.11297192 -0.08189677
-0.1924951 -0.009746758 -0.20685269 -0.13614029 0.07879067 0.01408848 0.038526975 -0.13471876
-0.055449475 0.06752128 -0.13767883 -0.072988726 0.118824 -0.0984728 -9.03122e-05 -0.0040813778
-0.054180425 0.06658508 0.10706109 0.05941304 0.09506361 -0.05458208 -0.087173484 -0.02557355
-0.031290084 -0.019265212 -0.065390915 -0.36949518 -0.14663127 -0.30607674 -0.2848162 -0.097013555
-0.31694293 -0.2194227 0.11970551 0.023460623 -0.0054964675 -0.022016753 -0.10232855 0.09977551
0.009437285 -0.011680154 0.037728235 0.056835108 0.10014794 0.13470261 0.002633899 -0.1276124
-0.012674162 -0.0017084292 0.015866777 0.05428957 -0.063970506 -0.045756582 0.12978055 0.073919654
0.059692413 0.08422335 0.049060177 0.10966234 0.06265622 -0.0727438 -0.11061101 -0.092243515
-0.21723354 -0.22970521 -0.18205416 -0.26760438 -0.24912997 -0.19588682 0.02986671 0.07025445
0.17956662 0.13201684 -0.035826653 0.033629946 0.040920977 0.02006498 0.026404796 -0.0542387
0.085540116 0.038026273 -0.06848701 -0.010291761 0.019693743 0.01391742 -0.015314306 0.014056283
-0.025066894 0.051987104 0.03352664 0.13390283 0.065886274 0.03320987 0.0063676704 -0.07994963
-0.050588112 -0.09402652 -0.08368129 0.08872864 0.017190624 0.048713468 -0.0144261625 -0.041943222
0.08313805 -0.04255915 -0.34836286 -0.18745475 0.21624039 -0.1539041 -0.21564262 -0.04742493
-0.18226877 -0.21607816 -0.18344665 -0.11601014 -0.03133681 -0.04124634 0.009931049 0.05046907
-0.064314395 -0.08443005 0.021671277 0.013229681 -0.3507244 -0.3084743 0.023048585 -0.28595728

conv2.bias f4 [32]
00000000: 9705 303d a21f d83d 630e 10bc 21e0 b9bd
00000010: eb5b 9ebd 2bea bdbb b978 19bd 9d05 aebd
00000020: 1cd1 c53d 67ea 23bc bdbf 703d 91b4 673c
00000030: 3973 91bd 290c a43d 35e9 c1bc 51e7 e33c
00000040: b44c a73c c223 64bd 0aa6 3c3b c37b 76bd
00000050: 09f1 63bc 5f71 92bd e1a4 563c 5ecd afbd
00000060: 4368 89bd 5b08 b7bc 933a 9f3d 41e2 61bd
00000070: cc72 a13d 4eab 85bd c044 b13d 34b9 36bc
0.04297408 0.105529085 -0.008792493 -0.09075952 -0.07732376 -0.0057957373 -0.037468646 -0.084971644
0.09659025 -0.010004616 0.058776606 0.0141421715 -0.07102055 0.08010132 -0.023670772 0.027820261
0.020422317 -0.055698164 0.002878549 -0.060176622 -0.013912448 -0.0715053 0.013100834 -0.085840926
-0.067093395 -0.022342851 0.07774844 -0.055147413 0.07883224 -0.065268144 0.08655691 -0.011152554

fc1.weight f4 [128, 1568]
00000000: 8035 073c d66d 503d 20e8 1b3c 6665 7dbc
00000010: b3d3 b23d fe52 84bc 71f7 96bd 1165 85bb
00000020: c5bf a93c 1271 b7b9 5e9f 1ebd 4c07 77bd
00000030: bd03 d5bc cefa a1bc 62bb 9a3b a8a5 eb3b
00000040: 3313 b33c 47f3 6bbc 7019 6dbd 8dea 8abd
00000050: ba7e 80bd 7fd5 493d 72ce 603d 305a adba
00000060: a96a ebbc 310d ad3c f043 d13b a955 d8bd
00000070: 5e10 ef3c e0f7 7a3d 0230 efbc 3de9 11bd
00000080: c8fc 2d3d 4c37 133d 8360 a43c 9f6f c13c
00000090: b4b9 553d 46eb 773d ad22 c33b f9a4 5d3d
000000a0: 72f0 2d3d f474 8b3c 8178 f93c 3b77 353d
000000b0: 849e 903d ff2a 823c fad7 d93d a61f d13d
000000c0: c1ff d63d e677 4ebd 5249 1c3e f45e db3b
000000d0: 6073 953c 642c e03d 73a6 ab3c f7aa 84bd
000000e0: 6bd9 2cbd 6308 4d3b 5ee1 113c f26d 953c
000000f0: a554 043d 69cb 793a 5c25 a5bd 1218 2ebd
00000100: 5812 13bc a6b7 5f3b 6855 643b 40c0 23bd
00000110: 8ac8 43bd 4e92 5dbd cb65 b0bc e8d9 c2bc
00000120: ef07 803c 0ae7 9fbc e42f 8abc 41ab d7bb
00000130: 85b4 69bd 5915 3b3b b5ea 33bc e21b 703a
00000140: 7fc7 053a 9850 323c 3d5f 443c 9619 dd3c
00000150: 50ad e8bb 6d1c 8dbb 06e2 fc3c cf4e 0cbb
00000160: 81f8 36bd 1d23 2ebc 3f00 01bd 9da2 14bc
00000170: c3bb 2b3c 89e2 223d 011e 8a3b 79fe c33c
00000180: 1813 723b a794 1c3d e082 cdbc 96de 183d
00000190: 0b16 823d f62d 2d3d b733 8a3c 7717 c33d
000001a0: 79e5 c1bd fcb1 32bd fec7 8cbc e2a0 37bc
000001b0: 02c4 89b9 b034 0abb 0851 2a3d f8b2 52bd
000001c0: 8353 55bd 6507 fcbb d96e eb3c 6fad de3c
000001d0: 930d 953b 7042 23bd ba66 31bd a790 d5bc
000001e0: 52c0 fa3b 7122 6fbb a4b9 373c 84a9 2e3c
000001f0: c150 37bd ee4f 3cbd ac6f c33b 77f4 ca3c
00000200: 67e8 423c 82d8 66bc 4ff5 08bc b8a6 f83c
00000210: a976 97bb 8ba8 863c 3ef8 003c cfd8 893c
00000220: f1ab b23c 0cf4 873b 81c2 c3bc 348b 2b3c
00000230: 75b4 b1bc 6673 123d b760 dc3c 2559 a8bb
00000240: 2c4e 183d b508 003d c748 fe3c 70d2 da3c
00000250: b3ee 24bd e262 cd3d cce4 2cbd 2d6e 56bd
00000260: 1f12 b73d fc83 1b3d 4071 9cbd 9fd4 2a3d
00000270: 8274 6c3d f85e 3d3b 750d c63c 410d dd3d
00000280: b321 0b3e 2607 acbd dc44 35bd 935d d1bc
00000290: 3a62 453e ab13 7c3d be12 433e 43e1 f6bb
000002a0: 955f c63c 8141 ba3c 4f72 38bd 1b7d a13b
000002b0: 02ae 33bd 90c5 603c 2da0 eebc 77d9 4a3c
000002c0: d72a 523d 4f36 09bd ea18 f9bc d750 393d
000002d0: e0d0 a93c 551e ce3c a91e fbbc 0be0 e33c
000002e0: 1681 9dbb 400a c7bd 4563 9ebd 3c75 fdbc
000002f0: cd2a 29bd 9df4 adbb b833 e43c e1a0 33bc
00000300: c7a6 223c a1b9 04bc dcd0 883c ca18 ef3c
00000310: 6df3 b2ba 5618 96bd ead5 0cbe 4c55 febd
00000320: a65a 5fbe cbbd 5b3d 56e7 0d3d b29b c83c
00000330: 6384 8fbd 665a 7f3d 595f 9ebd 26b5 273d
00000340: f4e0 86bd 4bfc 383d f6cc 10bd 8d03 f8bd
00000350: 4bed 333e 018f 593d cedd 633e 469d 663b
00000360: 541d 823b 158d ff3b 2ba0 a63c 8cd9 3b3e
00000370: 4b4a 653b 6753 fe3d c2e3 1c3d 56f9 b23c
00000380: 1e6d 343d f43b 09bd b2dc c63d 5413 633d
00000390: 539a 2c3d 213e e0bc 767d 123d 2d16 393d
000003a0: bf68 a6bc 3d7c 2f3d 7fcc 2ebd 5ed5 d23c
000003b0: 9c46 ed3c 9ce0 963c a726 4dbc 9751 5c3c
000003c0: d159 8cbb 9285 8dbc df4d f73b f7e8 283d
000003d0: 8d47 bc3d 06d6 6a3c bd58 823c a077 31ba
000003e0: 9914 363d 08bc d0bb 27e9 933c 0dd9 babd
000003f0: 25a3 27bd 7898 54bb 1b9c e93c 9a2d 203c
0.0082525015 0.050885998 0.009515792 -0.01546607 0.08731785 -0.016152855 -0.073714145 -0.004070886
0.020721326 -0.00034988724 -0.038726203 -0.060309693 -0.02600276 -0.019772913 0.004722045 0.0071913786
0.02185974 -0.014401264 -0.057885587 -0.06783018 -0.06274171 0.04927587 0.05488438 -0.001322573
-0.028737383 0.021124454 0.0063862726 -0.105632134 0.02918261 0.06127155 -0.029197697 -0.035622824
0.0424774 0.035941407 0.020065552 0.023612795 0.052179053 0.06052711 0.0059550614 0.05411241
0.042465635 0.017023541 0.030452969 0.04430316 0.070614845 0.015889643 0.106368974 0.102111146
0.10498 -0.050407313 0.15262344 0.006694669 0.018243492 0.10945967 0.020953393 -0.064779215
-0.042199533 0.0031285516 0.008903829 0.018240903 0.032307286 0.00095289067 -0.08063766 -0.042503424
-0.008976541 0.0034136563 0.0034840945 -0.039978266 -0.04779867 -0.054094605 -0.021532914 -0.023785546
0.015628783 -0.019519348 -0.01686854 -0.0065816944 -0.057056922 0.002854666 -0.0109812515 0.00091594283
0.00051032746 0.010883473 0.011985597 0.02698974 -0.0071007386 -0.004306367 0.030869495 -0.0021409278
-0.044670586 -0.010628489 -0.031494375 -0.009071973 0.010481778 0.039766822 0.0042150025 0.023925053
0.003693765 0.038227703 -0.02508682 0.03732165 0.063518606 0.04228016 0.016870363 0.0952596
-0.094675966 -0.04362677 -0.017185207 -0.011207791 -0.00026276713 -0.0021088533 0.041581184 -0.05144021
-0.052081596 -0.007691311 0.02873938 0.027182309 0.0045487373 -0.03985828 -0.04331086 -0.026069952
0.007652321 -0.0036489035 0.011213694 0.010660533 -0.044754747 -0.045974664 0.00596424 0.024774773
0.011896229 -0.014089705 -0.008359267 0.030352935 -0.0046222997 0.01643779 0.007871686 0.016827015
0.021810504 0.0041489657 -0.023896458 0.0104702 -0.021692494 0.035754584 0.026901586 -0.00513758
0.037183926 0.031258304 0.031040562 0.026711673 -0.040266704 0.10028626 -0.042210385 -0.052351166
0.08939003 0.037967667 -0.07638788 0.041706678 0.057728298 0.0028895717 0.024176339 0.107935436
0.13587074 -0.08399801 -0.044255123 -0.025557315 0.19275752 0.061542194 0.19050118 -0.0075341775
0.024215499 0.022736313 -0.04503089 0.004928244 -0.04386712 0.013718978 -0.029129112 0.012380949
0.051310387 -0.03349906 -0.030407388 0.04524311 0.020729482 0.025160948 -0.030654268 0.027816793
-0.004806648 -0.09718752 -0.07733778 -0.03093969 -0.041300584 -0.005308701 0.027856693 -0.0109636495
0.009927458 -0.008100898 0.016701154 0.029186625 -0.0013652869 -0.073288605 -0.13753477 -0.12418613
-0.21811923 0.053647798 0.034644447 0.024488304 -0.07007673 0.06234207 -0.0773303 0.04094424
-0.06585875 0.04516248 -0.035351716 -0.12110052 0.17570989 0.053114895 0.2225258 0.0035188957
0.0039707813 0.0077988007 0.020340046 0.18344706 0.003498691 0.124182515 0.038303144 0.021847408
0.044049375 -0.03350444 0.09710063 0.055438355 0.042139363 -0.027373375 0.03576418 0.045187164
-0.020313619 0.042843092 -0.04267549 0.025736507 0.028964333 0.018417649 -0.0125214225 0.013447187
-0.004283168 -0.017275605 0.0075471248 0.041237798 0.09193335 0.014333254 0.015911454 -0.00067698397
0.044453237 -0.0063700713 0.018055512 -0.091234304 -0.04092707 -0.0032439511 0.02851682 0.009776497

fc1.bias f4 [128]
00000000: 4ebb 183d fed4 733c b085 4f3c 4660 5e3d
00000010: 9867 383d 626c 13bd fba6 27bd 56ff 323d
00000020: a551 9f3d b5f6 e0bc ca38 533c e75d 083c
00000030: 2876 b53c 1152 a0bc fd5d 943c 6e98 923c
00000040: a6b6 f83b 8758 2cbd be6c e63b 99e2 8d3c
00000050: 799a d53c 47db a43c dcb7 e0bc 4593 283d
00000060: 3ec8 7cbc 49d0 f03c 06b8 8e3c a936 9bbc
00000070: 7707 64bd 480b e73c 1ed5 8dbc 3525 d1bb
00000080: 7d7b 753c b01e e13b b64e 9ebc e86f 46bc
00000090: b838 59bb 9b32 f0bc 0e55 4ebd 9fbf ab3c
000000a0: 569e 9e3c b401 213d c10d 463d 12c1 e03c
000000b0: e476 133c 51e3 56bc 9a53 843d 0055 c23c
000000c0: 63b9 2c3c e531 17ba 72ae 303d 2492 48bc
000000d0: b181 7b3d a808 2a3d cb63 ecbc ab14 133d
000000e0: 9085 f5bc 474f 113c b575 7abb cb30 393d
000000f0: 0bfb 4ebc b446 a43b 124d 90bc 525c 53bd
00000100: 2213 f0bc 006d 033c 26cc 3d3d 5c20 c6bc
00000110: c769 3a3c 29ab be3c 165c 983b db13 d6bc
00000120: ee54 62bc 4f6a 18bc 78d6 2c3d e7a0 82bc
00000130: 8940 b83a a618 0ab8 2d78 f53c be26 fbbc
00000140: 1fc0 0fbd e79f 3f3d 1d8e 29bc 5766 dcbb
00000150: cb3d ecbb c337 47bc dedf a6bb 71b2 cabc
00000160: 477b b7bc 2092 c9bc 6372 07bc 3e4d a8bc
00000170: 1a8f 813c 0ff7 b9bc 82f5 4b3b dcf9 96bc
00000180: ee00 5e3d f08a 03bd 7d18 4a3c 6670 5aba
00000190: 52f2 ecbb e561 7f3c 785c 24bd d9eb ecbc
000001a0: 20ee c73c 1c01 893b b8d6 4e3c 0276 ea3a
000001b0: 94a0 efbb 91da c73c 2075 28bd c168 193c
000001c0: bbfa 183c 313c 853c d4de 233c 212a 2f3d
000001d0: ba08 2bbc 5ce6 883d 0293 79bc 9986 b5bc
000001e0: f403 fc3c a023 963c a61c 28ba 7713 6c3c
000001f0: b73f 6c3d 1a74 cd3c ce66 e23a 34e3 18bc
0.037288003 0.014882324 0.012666151 0.054291032 0.04502067 -0.035992034 -0.04093073 0.04370054
0.07779244 -0.02746139 0.012891958 0.008323169 0.022151068 -0.019570382 0.018111223 0.01789495
0.0075901328 -0.042076614 0.007032006 0.017319964 0.026074635 0.02012409 -0.027431421 0.041156072
-0.015428601 0.029396193 0.017421734 -0.018946962 -0.05567118 0.028203622 -0.017313536 -0.0063826093
0.014983055 0.0068701133 -0.019324642 -0.0121116415 -0.003314538 -0.029321006 -0.050374083 0.020965395
0.01936261 0.039308265 0.04835296 0.027435813 0.009000514 -0.01311572 0.06461258 0.023722172
0.0105422465 -0.0005767628 0.043135114 -0.012241874 0.06140298 0.04151216 -0.028856179 0.035908382
-0.029970914 0.008868999 -0.0038217132 0.04521255 -0.0126330955 0.0050133113 -0.017614875 -0.051601715
-0.029305998 0.008021593 0.04633727 -0.024185352 0.011377758 0.023274975 0.0046496494 -0.026132515
-0.013814194 -0.00930269 0.04219672 -0.015945865 0.0014057319 -3.292472e-05 0.02996453 -0.030658122
-0.03509533 0.046783354 -0.010348824 -0.006726067 -0.0072095147 -0.012159291 -0.005092605 -0.02474329
-0.02239765 -0.02460581 -0.008267018 -0.020544644 0.015815306 -0.022700815 0.0031121676 -0.01842969
0.054200105 -0.032114923 0.01233494 -0.0008332789 -0.0072310353 0.015587305 -0.040127248 -0.028921055
0.024405539 0.0041810405 0.012624435 0.0017887952 -0.0073128436 0.024396213 -0.041127324 0.009363354
0.009337123 0.016264053 0.010001857 0.042764787 -0.010439092 0.066845626 -0.015232803 -0.022158908
0.030763604 0.018327534 -0.00064129604 0.014408938 0.05767795 0.025079776 0.001727307 -0.009331513

fc2.weight f4 [10, 128]
00000000: 7ed4 b5bb d4aa 7f3d c9b9 a63d bfec c53d
00000010: 5769 a23d 7b32 a2bc ec7c cbbd c143 9c3d
00000020: a475 ad3d 6b74 59bd 003e 3c3d eb14 3fbd
00000030: df45 033e 63ab a13d 1295 a03d 5313 733d
00000040: 1ebd 963b bbc8 773d 8789 a33d 8ad1 9e3d
00000050: b6e9 9cbd e590 5dbc 8f92 2d3d 49db 10be
00000060: d574 c83c 2eba 3ebe c2d0 c13d 76bc c73d
00000070: 1e56 4b3d 3389 033e 437f 02bc 9620 103c
00000080: 41c7 73bd 66c7 8b3d c0f4 c9bd 99e2 36be
00000090: 3e0e e3ba fa70 1f3b 124f 183b 59a7 4abd
000000a0: a643 9bbc 20e9 33bd f258 a8bc bb78 1bbe
000000b0: 756e ec3c d9f5 563d 4af5 903d 1920 c0bc
000000c0: 32e8 943d dbf1 903d 86ab 92bd de28 9a3d
000000d0: d5a6 483d 2d65 48be 9925 5cbc 6bfd 853d
000000e0: df4f 26bd 7465 dfbc 8ac7 78bd 1eae cc3c
000000f0: fc49 cd3d d3dd acbd 4c76 22bd 8720 8bbd
00000100: ebb2 a7bc 84ed ac3c 2fad 353d 5cf2 0abd
00000110: 099d 29bd 46a4 ae3c 388d 5b3d febe 9f3d
00000120: 15e6 d33c 9aae 8d3d 9d81 d5bd 23f6 393c
00000130: 95dc 843c 63fd 083d c073 873d e364 9abd
00000140: 9cf6 f1bd 4b78 8dbd 850c 443d f368 d8bc
00000150: 60fc 07bd 498b 29bc 3136 0bbd 1067 85bd
00000160: 2f75 33bd 4456 b1bc 6446 383d 8a0f 6bbd
00000170: c8ff a03d 1416 67bd 253a 46bd ed5a db3c
00000180: 338f 9e3d 5383 e9bd 5205 cd3d 0a88 123d
00000190: 4c40 8dbd 0e0a 833d d79a 85bd 979b a53d
000001a0: e0b8 37bd 0b0b 113d 3525 29bc 4d00 30bd
000001b0: 71a3 f1bd 1f92 72bd 67eb cabd b562 f4bc
000001c0: 0107 5dbd 0687 5c3c c850 163d 1285 f6bc
000001d0: c09c 35bd 82a2 1bbd 4fec 96bd e632 37bc
000001e0: a10d 4cbc ce29 bc3d 3cfa 1e3b e59f bb3d
000001f0: 85e2 523d a36b 973d a464 c4bd 4368 a23d
00000200: cd4b e53c 336d a33d fa5b b6bd a328 dd3d
00000210: e78e 22be a0a2 4d3d 2a52 13be fffc d63d
00000220: 7cff eabd 904e 0a3e d3e6 b33d aadc 98bd
00000230: d0a0 353d 3a1d 4abd f34d 9bbd 1184 bf3c
00000240: c4be 073d 5fed bcbd 42d4 123d a4dc a33d
00000250: a0bf a83d 3e18 923d 8c21 913d 3e8c a53d
00000260: e7e3 773d 04f6 f7bd 1641 ec3b abf3 cf3d
00000270: 8d8e a13d 23a2 1e3e 822a 893d b51a 713d
00000280: 82f8 cbbd 6dad 2cbd 9534 0ebe c700 d93d
00000290: 269b 713d cef3 f2bd cd85 d33d 8dcc 45bd
000002a0: c3dd b0bd c3f9 51be 8d71 503d 61de ec3d
000002b0: 3976 1bbb 40d9 40bc 145b 69be 0e4c 21bd
000002c0: d8b4 403c f8c3 003c 1438 5dbd 9549 efbb
000002d0: 317a 14be 528e d5bd d441 af3b eb2d 0ebd
000002e0: 4ed8 8bbd 2d43 1dbd 974d 373c 576e 80bb
000002f0: 0161 ad3d 0b5a 163e 172d 1b3d 70df d33d
00000300: eaa8 c8bc 7ffc af3c 142b 2abe d1a5 093c
00000310: 56e9 163d e4a5 a63d 2c58 55bc 112d 6ebd
00000320: 1cdf cdbd 1288 5fbd bd27 073e cbd2 ffbc
00000330: 1338 2a3d 7536 b8bc 3040 913d ba1c 2cbd
00000340: d8b6 d93d 3aca 6ebe 6193 1abd 03c4 523d
00000350: a156 163e f17c 99bc e31e 75bc 6b93 993d
00000360: 29a0 0d3d c9b2 303d a302 843d c33e 8bbd
00000370: 4665 febd 63b8 703d d63c e3bc b13a f1bc
00000380: 7a76 c7bb a27c 9f3d 58f8 4b3a 190d d7bc
00000390: ca21 9f3d 37aa 663d d8a2 0abe caad 5f3d
000003a0: df1e 65bd 491b 853c 6569 92bd 9050 ce3c
000003b0: 3657 ccbd f610 55bc 2edf b0bd 953c 39bd
000003c0: 43cc 2bbc 101c 4e3c 9e37 473d 24a7 b63c
000003d0: c12b 49be ac55 82be 565e 5f3d 3ffc 6fbc
000003e0: 93ff d1bc 84c1 3ebe f016 e73c a193 9ebd
000003f0: b9c1 8abd 00e8 0fbc bc29 6cbe c6dd 8a3d
-0.0055490127 0.062418774 0.081409045 0.09664296 0.07930248 -0.019799462 -0.09935936 0.076301105
0.08469704 -0.05308954 0.045957565 -0.04665081 0.12819622 0.078940175 0.07840933 0.0593446
0.0046001812 0.060494166 0.07985216 0.0775481 -0.07661764 -0.013523315 0.042376097 -0.1414615
0.024469772 -0.1862571 0.094636455 0.09752743 0.049642675 0.12845306 -0.007964912 0.008796832
-0.059516195 0.068251416 -0.098611355 -0.17859878 -0.001732297 0.0024328814 0.002324049 -0.049476
-0.018953156 -0.043923497 -0.020550225 -0.15182774 0.028861264 0.052480552 0.07078035 -0.023452805
0.0727085 0.0707738 -0.07161622 0.07527326 0.04898723 -0.19569845 -0.013436698 0.06542476
-0.040603515 -0.027270056 -0.06073717 0.02498537 0.10023877 -0.08440747 -0.039663598 -0.067933135
-0.020471057 0.02110935 0.044354614 -0.03392254 -0.041409526 0.021318566 0.053601474 0.07800101
0.025866548 0.06918068 -0.104251124 0.0113501875 0.016218463 0.033444773 0.066138744 -0.07538774
-0.11814615 -0.0690771 0.047863502 -0.026417231 -0.033199668 -0.01034815 -0.033987228 -0.06513798
-0.043812927 -0.02164758 0.044989005 -0.057387866 0.078612864 -0.05641754 -0.048395295 0.026776755
0.07742157 -0.11402001 0.100107804 0.03577427 -0.06897029 0.06398402 -0.06523674 0.08086317
-0.044854045 0.035410922 -0.010323812 -0.042969037 -0.11798752 -0.059221383 -0.09908181 -0.029832223
-0.053961758 0.0134599265 0.036698133 -0.03009275 -0.04433894 -0.037996776 -0.07369291 -0.011181569
-0.012454421 0.09187661 0.0024258038 0.09161357 0.051485557 0.07393577 -0.09589508 0.079300426
0.027990246 0.079798125 -0.08904262 0.107987665 -0.15874825 0.05020392 -0.14386812 0.10497474
-0.11474511 0.13506532 0.087842606 -0.07463963 0.044342816 -0.04934428 -0.07583227 0.023378404
0.033140913 -0.092249624 0.035846956 0.08001068 0.082396746 0.0713353 0.07086477 0.0808339
0.06052008 -0.12107471 0.0072099073 0.10153898 0.078885175 0.15491538 0.06697561 0.05886336
-0.099595085 -0.04215758 -0.13887246 0.105958514 0.05898585 -0.11862908 0.10328255 -0.048290778
-0.08636048 -0.20505433 0.05088954 0.11565853 -0.002372159 -0.011770546 -0.2278865 -0.039379172
0.0117618665 0.007859223 -0.05400856 -0.007302473 -0.14499737 -0.10427536 0.0053484235 -0.03471176
-0.06828366 -0.038394142 0.011187932 -0.0039194035 0.08465768 0.14682786 0.037884798 0.10345352
-0.024494607 0.021482704 -0.16617996 0.00840135 0.03684362 0.0813711 -0.01302151 -0.058148447
-0.1005232 -0.054573126 0.13198753 -0.031228444 0.041557383 -0.022486905 0.07092321 -0.042019583
0.10630578 -0.23319331 -0.037738208 0.051456463 0.14681484 -0.018736335 -0.014960977 0.07498821
0.03457657 0.043139253 0.064458154 -0.0679908 -0.1242166 0.058769595 -0.02773897 -0.029446932
-0.0060871216 0.07787444 0.00077808416 -0.026251363 0.077701166 0.056314673 -0.13538682 0.054609098
-0.055937644 0.016248362 -0.07149009 0.0251849 -0.09977572 -0.013004532 -0.08636318 -0.04522379
-0.0104857115 0.012579933 0.048637025 0.022296496 -0.19645597 -0.25455987 0.054533325 -0.0146475425
-0.025634563 -0.18628508 0.02820918 -0.07743002 -0.06775231 -0.00878334 -0.23062795 0.06780581

fc2.bias f4 [10]
00000000: eaf1 6e3d ce8d a3bd 786e a4bc e18f 9dbc
00000010: 2f32 f8bd d957 1ebd 756b f5bb dce4 8a3d
00000020: b7d1 2cbd 844a c43b
0.058336176 -0.079860315 -0.020072207 -0.019233646 -0.12118947 -0.038657997 -0.0074896165 0.06781933
-0.042192187 0.0059903283
